checkpoint.pth (torch_old, 180848 bytes, 7 tensors)

lstm.weight_ih_l0 f4 [400, 5]
0.25188702 0.20928694 0.284015 0.13142483 0.020544987 0.17705718 0.040893555 0.2299748
0.24165021 -0.1870453 -0.0026590924 -0.06211096 -0.068193994 -0.046354342 -0.08200991 0.025850367
0.16048372 0.15704411 0.18658234 -0.07316456 0.15819344 0.025842477 0.020389967 0.123958774
0.06412092 -0.09027612 -0.07074786 -0.124245144 0.042294614 0.16031177 0.17510065 0.21393767
0.03858734 0.12486774 -0.026666932 0.1455807 0.17862152 0.02307699 0.1368379 0.4337355
0.11611133 0.1914254 0.14655796 0.2380376 0.12165346 -0.024799617 -0.18232845 -0.14554168
-0.068973795 0.1841756 -0.15196057 -0.08634998 -0.19118224 -0.11073522 -0.11605551 -0.07504242
0.07097707 -0.00031449812 0.1326886 0.14874095 0.100224294 0.22472715 0.0925622 0.17085038
-0.057655986 -0.028590871 -0.061432816 -0.011065033 -0.06630872 0.015913978 -0.17643209 -0.013195468
-0.102156684 -0.06632368 -0.047651723 -0.3433699 -0.3320039 -0.17840533 -0.30557227 0.068460144
-0.19218859 -0.06463888 -0.08419497 -0.1676662 0.026724838 0.048205778 0.045747112 -0.008990029
0.04900346 0.03534483 -0.030080887 -0.21000394 -0.20855744 -0.14465661 0.01069258 -0.013025446
0.08181254 0.14638886 0.17568488 0.06274776 0.09743029 0.25682074 0.27919906 0.1316145
0.3100121 -0.11509958 -0.01015741 0.041366242 0.09370584 -0.16973443 0.062941514 0.034987856
-0.018855862 0.05398341 0.0005782464 -0.10055926 -0.109094165 -0.09231407 -0.020001858 0.036885638
-0.013619432 -0.09672136 -0.1641415 -0.02164629 0.037859216 0.09750491 0.04718246 0.07433163
0.11023839 -0.0012725837 0.0029273545 -0.0820547 -0.06270857 -0.10343113 0.06794259 -0.08730169
-0.26321307 -0.09678643 -0.25632018 -0.08252811 0.11531658 0.12650083 0.19523793 0.14664806
-0.073138416 -0.16647424 -0.060491174 -0.15587775 -0.11670286 0.17543966 0.05214282 -0.0034347095
0.12631647 0.084383205 0.116246566 0.03342227 0.02665416 0.19007428 0.10050356 -0.23168056
0.080979034 0.04948516 0.1580438 0.20973362 0.011953479 0.07613485 0.13034606 0.06267313
0.045137703 0.04628984 0.03796532 -0.030357385 -0.031045262 -0.019343762 -0.053494766 -0.11323238
-0.084839806 -0.19734786 -0.18602757 0.025860114 -0.10460179 -0.03203137 -0.0994758 -0.139785
0.0565136 -0.08429865 -0.05582427 -0.02173618 -0.09111179 0.05476262 -0.031790778 -0.1233933
-0.096707545 -0.17548826 0.13584146 -0.11227174 -0.08103359 -0.16595007 -0.0096318135 -0.01697457
-0.11609177 -0.22322847 -0.25115308 -0.05872663 -0.00080409186 -0.19984563 -0.09144141 -0.052299075
-0.06575764 0.09558836 -0.0010058855 0.106828324 0.03777364 0.011160293 0.111479364 -0.026602225
-0.07060253 0.020435521 -0.017370122 0.09751241 0.18246022 0.16359402 0.03284531 0.07521474
-0.14412479 0.14557926 0.19433096 0.03430806 0.18992718 -0.09806349 0.020338 0.02065034
-0.025229597 0.019654714 0.024753073 0.49049938 0.43811005 0.5490742 0.5817246 0.75890285
0.060007393 -0.034439314 -0.014779308 0.046889253 0.074108675 0.19455494 0.24627504 0.28035593
0.1631893 -0.08664936 -0.041856237 -0.106049865 -0.017178476 -0.076863915 -0.11015066 -0.239817
00000000: 56f7 803e 514f 563e 6a6a 913e 3b94 063e
00000010: f64d a83c 7a4e 353e 0080 273d 847e 6b3e
00000020: 2773 773e ce88 3fbe 2b44 2ebb 1068 7ebd
00000030: 4ba9 8bbd 0dde 3dbd d0f4 a7bd 26c4 d33c
00000040: d855 243e 2cd0 203e 710f 3f3e 4dd7 95bd
00000050: 76fd 213e 9ab3 d33c dc08 a73c 19de fd3d
00000060: d451 833d b0e2 b8bd 41e4 90bd 3d74 febd
00000070: 1e3d 2d3d c528 243e 964d 333e 7a12 5b3e
00000080: c20d 1e3d a8ba ff3d 9c74 dabc 1b13 153e
00000090: 8fe8 363e f50b bd3c 3c1f 0c3e 9412 de3e
000000a0: c7cb ed3d 0505 443e 4a13 163e 21c0 733e
000000b0: 7325 f93d 9128 cbbc 4fb4 3abe e108 15be
000000c0: 2242 8dbd 8798 3c3e 8d9b 1bbe 42d8 b0bd
000000d0: 47c5 43be 26c9 e2bd 83ae edbd d7af 99bd
000000e0: 6d5c 913d 39e3 a4b9 85df 073e 8c4f 183e
000000f0: 6542 cd3d e01e 663e 4091 bd3d 67f3 2e3e
00000100: af28 6cbd 6737 eabc faa0 7bbd 1d4a 35bc
00000110: decc 87bd 085e 823c 9daa 34be ce31 58bc
00000120: 8637 d1bd b6d4 87bd 742e 43bd 2ece afbe
00000130: 6afc a9be e3af 36be f873 9cbe d534 8c3d
00000140: 16cd 44be 6461 84bd 6a6e acbd b0b0 2bbe
00000150: 0cee da3c 6c73 453d 5361 3b3d ea4a 13bc
00000160: dab7 483d bec5 103d 316c f6bc 460b 57be
00000170: 1590 55be dd20 14be ee2f 2f3c ae68 55bc
00000180: 558d a73d f6e6 153e bde6 333e e681 803d
00000190: 8889 c73d 027e 833e 2ef3 8e3e f4c5 063e
000001a0: e8b9 9e3e 54b9 ebbd 446b 26bc a66f 293d
000001b0: d9e8 bf3d ddce 2dbe 7be7 803d 6d4f 0f3d
000001c0: 9c77 9abc b51d 5d3d 7695 173a 03f2 cdbd
000001d0: c36c dfbd 290f bdbd f0da a3bc 6515 173d
000001e0: 0a24 5fbc d915 c6bd b614 28be 8f53 b1bc
000001f0: 4412 1b3d a7b0 c73d 6542 413d 2e3b 983d
00000200: aac4 e13d d3cc a6ba dcd8 3f3b 4b0c a8bd
00000210: 5a6d 80bd b3d3 d3bd 7c25 8b3d 3acb b2bd
00000220: ddc3 86be f737 c6bd 663c 83be 7f04 a9bd
00000230: 192b ec3d 6f89 013e 74ec 473e e92a 163e
00000240: 98c9 95bd 3978 2abe 98c5 77bd 6b9e 1fbe
00000250: e901 efbd 74a6 333e b693 553d dd18 61bb
00000260: 1b59 013e 1ad1 ac3d ae12 ee3d cae5 083d
00000270: d359 da3c d5a2 423e cfd4 cd3d ab3d 6dbe
00000280: 56d8 a53d f3b0 4a3d 3cd6 213e 69c4 563e
00000290: 86d8 433c 97ec 9b3d 7079 053e c55a 803d
000002a0: 50e2 383d 6a9a 3d3d 8681 1b3d 0db0 f8bc
000002b0: a252 febc cf76 9ebc 541d 5bbd 61e6 e7bd
000002c0: 7ec0 adbd 8f15 4abe 037e 3ebe 97d8 d33c
000002d0: 7739 d6bd 5333 03bd f8b9 cbbd cd23 0fbe
000002e0: ce7a 673d c5a4 acbd fda7 64bd 1310 b2bc
000002f0: d198 babd c54e 603d 0c37 02bd a0b5 fcbd
00000300: 9b0e c6bd 32b3 33be 061a 0b3e baee e5bd
00000310: f0f4 a5bd d1ee 29be c1ce 1dbc 410e 8bbc
00000320: 86c1 edbd 0196 64be 2397 80be 568b 70bd
00000330: b1c9 52ba 55a4 4cbe a245 bbbd 8e37 56bd
00000340: f1ab 86bd d5c3 c33d ebd7 83ba cfc8 da3d
00000350: 88b8 1a3d a9d9 363c 4b4f e43d e9ec d9bc
00000360: 0f98 90bd 6568 a73c c94b 8ebc 96b4 c73d
00000370: dad6 3a3e 3185 273e ce88 063d 300a 9a3d
00000380: 7395 13be bb12 153e b2fe 463e 9c86 0c3d
00000390: 457c 423e 83d5 c8bd e19b a63c e72a a93c
000003a0: 4dae cebc ec02 a13c f5c6 ca3c bc22 fb3e
000003b0: f64f e03e 2090 0c3f e7eb 143f 7547 423f
000003c0: 50ca 753d 3d10 0dbd e924 72bc f20e 403d
000003d0: 4ac6 973d 6939 473e 862f 7c3e d08a 8f3e
000003e0: 191b 273e 3875 b1bd 7271 2bbd ac30 d9bd
000003f0: e0b9 8cbc d46a 9dbd ab96 e1bd 9692 75be

lstm.weight_hh_l0 f4 [400, 100]
0.023878915 -0.012503381 -0.062759794 0.13824996 -0.07170312 -0.053211555 0.07416805 0.007266943
-0.025796998 -0.03471075 0.010267415 -0.04029348 0.010810331 0.13253303 0.16539383 0.052047808
0.018931767 0.14540291 -0.14838196 -0.03227702 -0.02384611 0.041164413 0.2279715 -0.09213837
-0.16855122 -0.022964716 0.07884846 0.0535177 -0.06809261 0.050251864 -0.048897486 0.019487714
0.024653412 -0.08741129 -0.0741692 0.044193488 -0.12166776 -0.061072897 0.046153724 -0.09020525
-0.058721807 0.03408454 -0.064700544 -0.115849406 -0.036595874 0.046639018 0.00705185 -0.055406142
-0.023942119 0.006038937 -0.026201822 -0.008524849 0.08344047 -0.109808356 0.11496125 0.09632501
0.06146699 -0.024483277 -0.10599709 -0.015240794 -0.041941073 0.024163157 -0.07037539 -0.08090269
0.08753021 -0.09328905 0.077119626 0.02559152 -0.02372349 -0.032115478 -0.07795289 -0.041628886
0.115480006 0.009221518 -0.13159247 0.026704727 -0.09424749 -0.02657967 0.13973823 -0.08735454
0.053887043 0.0171572 0.034597848 -0.0110123325 -0.018218333 0.0067094704 0.02558471 -0.06448803
-0.1380708 0.019927943 -0.07458388 -0.012563308 -0.05815575 0.041009262 0.08139079 0.019408504
0.066948146 -0.08584817 0.040867645 -0.10179843 0.029154552 -0.021143293 -0.114177816 -0.014955623
0.030058933 -0.014387323 -0.027458096 -0.013678007 -0.07995012 -0.014427926 0.057597984 0.08085071
0.008955417 0.14743654 0.05528876 0.19416356 0.09073912 -0.10007519 -0.08397656 0.061586734
-0.08248077 -0.029154962 0.09395436 0.01407639 -0.053484093 0.019601304 0.05670652 0.07711034
-0.07267755 -0.011650499 -0.058197606 -0.16341163 -0.009304814 -0.02658128 0.005708051 0.028551055
-0.025465004 0.020659773 -0.0587194 -0.09342603 -0.014142663 -0.069428675 -0.12656797 -0.005044907
-0.14223592 -0.15078852 0.14523758 0.16445157 0.09552682 0.12907135 0.021220654 0.014054155
0.059640057 0.05402022 -0.0015473536 -0.08551183 -0.10905796 0.11529744 -0.11294963 -0.09144982
-0.1373217 0.04203061 -0.063313596 0.13056336 0.06354239 0.010662853 -0.019961497 -0.04159443
0.058040697 0.0025038072 -0.085111976 -0.10621423 -0.051407173 0.016584009 0.009508656 0.034850147
-0.10214837 0.05425436 -0.04686016 -0.16804333 0.02068843 0.041759513 -0.041875735 -0.08995385
0.09975479 0.07482885 0.038126983 0.1659469 0.08760756 -0.08444969 0.049780007 0.067330524
-0.06730194 0.09009716 0.025715275 -0.09895125 0.03973506 0.054331433 0.009693234 -0.057442605
0.047996677 0.05802469 -0.14518054 -0.10780751 0.11924628 -0.086878106 -0.13648975 0.13234878
-0.19345884 0.13454175 -0.0556726 0.1320919 0.12549748 0.06384025 -0.1187659 -0.11517032
-0.06363141 -0.044890687 -0.09576912 0.027688108 -0.13164699 -0.052316234 -0.15857656 -0.21394232
-0.122494735 -0.09438967 -0.14531793 0.0115996925 -0.022655059 0.014579604 -0.20221739 -0.09666641
-0.1027388 -0.18298726 0.23223309 -0.025966637 -0.01263259 0.053777702 0.06322388 0.12982157
0.02041789 0.11139623 0.035123337 0.03899742 -0.19657986 -0.17228052 0.13137947 0.07278725
0.15505297 0.013195374 0.23286088 0.017073596 0.038376223 0.026561426 0.118869044 -0.1875609
00000000: b79d c33c fbda 4cbc 3588 80bd 6691 0d3e
00000010: 16d9 92bd 5cf4 59bd 6be5 973d 891f ee3b
00000020: 3a54 d3bc dc2c 0ebd a938 283c c70a 25bd
00000030: d11d 313c bdb6 073e 005d 293e 1530 553d
00000040: cb16 9b3c 80e4 143e 71f1 17be e934 04bd
00000050: eb58 c3bc 049c 283d 5c71 693e 0bb3 bcbd
00000060: b198 2cbe 8020 bcbc 4d7b a13d 6035 5b3d
00000070: 2374 8bbd e6d4 4d3d bb48 48bd b3a4 9f3c
00000080: f4f5 c93c b104 b3bd 06e6 97bd 3b04 353d
00000090: f22c f9bd 9327 7abd b00b 3d3d 88bd b8bd
000000a0: 4786 70bd 3b9c 0b3d b881 84bd 7442 edbd
000000b0: 8ee5 15bd 8e08 3f3d 3513 e73b 8df1 62bd
000000c0: 4322 c4bc 46e2 c53b 34a5 d6bc cfab 0bbc
000000d0: d6e2 aa3d 34e3 e0bd ce70 eb3d 0c46 c53d
000000e0: cfc4 7b3d 2791 c8bc 0115 d9bd 86b4 79bc
000000f0: 67ca 2bbd d0f1 c53c f920 90bd 4fb0 a5bd
00000100: 0a43 b33d 540e bfbd e5f0 9d3d 4fa5 d13c
00000110: c457 c2bc 858b 03bd c4a5 9fbd 0d83 2abd
00000120: c880 ec3d da15 173c 2dc0 06be dfc3 da3c
00000130: d404 c1bd 9cbd d9bc 8a17 0f3e f0e6 b2bd
00000140: a9b8 5c3d 428d 8c3c 79b6 0d3d 126d 34bc
00000150: 9d3e 95bc 1edb db3b 0797 d13c 4d12 84bd
00000160: 6f62 0dbe ed3f a33c 6fbf 98bd 55d6 4dbc
00000170: b934 6ebd 54f9 273d 37b0 a63d 95fe 9e3c
00000180: 1c1c 893d 2ad1 afbd d564 273d b27b d0bd
00000190: 87d5 ee3c b334 adbc 0fd6 e9bd 6e08 75bc
000001a0: 273e f63c ceb8 6bbc cdef e0bc b819 60bc
000001b0: e3bc a3bd 1c63 6cbc ddeb 6b3d 0f95 a53d
000001c0: beb9 123c 9bf9 163e 7876 623d d0d2 463e
000001d0: 6fd5 b93d 39f4 ccbd e7fb abbd 5f42 7c3d
000001e0: aeeb a8bd 63d6 eebc 256b c03d a9a0 663c
000001f0: 2312 5bbd ea92 a03c 1945 683d 07ec 9d3d
00000200: f8d7 94bd bce1 3ebc 9d60 6ebd 6155 27be
00000210: 3873 18bc fcc0 d9bc 9a0a bb3b e7e3 e93c
00000220: fc9b d0bc af3e a93c c183 70bd 2556 bfbd
00000230: a1b6 67bc 9f30 8ebd 099b 01be bf4f a5bb
00000240: 4ba6 11be 4e68 1abe 29b9 143e fe65 283e
00000250: 91a3 c33d 482b 043e f0d6 ad3c 6643 663c
00000260: 2249 743d 4e44 5d3d 92d0 caba d420 afbd
00000270: c859 dfbd 1021 ec3d 2352 e7bd 0b4a bbbd
00000280: 0f9e 0cbe 4a28 2c3d 8faa 81bd 67b2 053e
00000290: 8322 823d 3fb3 2e3c 4b86 a3bc ec5e 2abd
000002a0: 15bc 6d3d ea16 243b 304f aebd d986 d9bd
000002b0: 5490 52bd 30db 873c 32ca 1b3c 07bf 0e3d
000002c0: 2a33 d1bd d239 5e3d 70f0 3fbd 8d13 2cbe
000002d0: c87a a93c 060c 2b3d e485 2bbd b939 b8bd
000002e0: 3d4c cc3d de3f 993d 0a2b 1c3d fced 293e
000002f0: 986b b33d f6f3 acbd 1fe6 4b3d 96e4 893d
00000300: 99d5 89bd dc84 b83d d7a8 d23c f4a6 cabd
00000310: 3bc1 223d a38a 5e3d 5fd0 1e3c f048 6bbd
00000320: 2a98 443d 4cab 6d3d 35aa 14be 2fca dcbd
00000330: 6537 f43d 26ed b1bd f8c3 0bbe 7086 073e
00000340: 131a 46be 50c5 093e f408 64bd 1943 073e
00000350: 6982 003e adbe 823d 893b f3bd 6bde ebbd
00000360: 2f51 82bd 4cdf 37bd 9a22 c4bd 2cd2 e23c
00000370: 78ce 06be 8c49 56bd e561 22be b213 5bbe
00000380: 85de fabd 5f4f c1bd 39ce 14be a30c 3e3c
00000390: 1a97 b9bc 4bdf 6e3c 1312 4fbe 0af9 c5bd
000003a0: b868 d2bd 0361 3bbe 83ce 6d3e fcb7 d4bc
000003b0: ecf8 4ebc 0246 5c3d 867b 813d f2ef 043e
000003c0: 6b43 a73c b523 e43d 7ddd 0f3d c2bb 1f3d
000003d0: 3b4c 49be 4e6a 30be 5788 063e 7b11 953d
000003e0: 35c6 1e3e 6931 583c 1573 6e3e eddd 8b3c
000003f0: 6330 1d3d 5997 d93c 9d71 f33d f70f 40be

lstm.bias_ih_l0 f4 [400]
-0.114340864 -0.13759987 -0.11890536 -0.027711028 0.06010667 0.009546743 -0.14774984 0.06039898
0.010576822 -0.10868224 -0.03272654 -0.07903363 -0.052116815 -0.03471191 -0.021634365 -0.0019866584
0.0054565626 -0.022581553 0.0064366604 0.061992023 0.28493422 -0.12683457 0.021977285 -0.021736868
-0.08701716 -0.047522657 -0.08577028 0.10069986 -0.13247065 0.10179669 -0.020079967 0.010159374
-0.05707674 -0.041867454 0.032746334 0.008707473 0.062598415 0.07277357 0.128768 0.0017888448
-0.05924473 0.077237114 0.22645405 -0.0019643349 -0.06179552 -0.12874089 0.1206863 0.41180646
0.034788407 -0.11288461 0.015215077 0.037219327 0.12500554 0.031025419 0.02115036 -0.15991952
-0.04729758 0.0019506093 0.0023263653 0.08109028 -0.024396071 0.07519017 0.0796164 -0.063725464
0.068242975 -0.037672944 -0.0601424 0.0059043886 -0.044439908 0.10103514 0.012433326 -0.038944487
-0.12663314 -0.09891851 -0.086732335 0.031102268 0.10339501 -0.03259845 0.024374666 -0.13171823
0.016951585 0.12388055 0.055283602 -0.054224074 0.021574212 -0.021776782 0.020929543 -0.025871629
-0.06378073 -0.056131057 0.12712537 -0.06106618 0.050151654 0.10851265 -0.20032647 0.06471232
-0.10876363 0.008518318 0.100059874 0.056428723 0.079670526 -0.012343455 0.10145859 -0.043894768
0.07154521 0.10630873 0.046150964 -0.2751168 -0.14139213 -0.063945144 0.043935437 -0.17663643
-0.11082527 -0.1005464 0.028674489 0.15474641 0.20856398 -0.098372094 0.14273848 -0.05050889
-0.2622099 -0.12224023 0.016573442 -0.033453695 0.20713499 -0.08855432 -0.108774915 0.04439975
-0.24631387 0.12231138 -0.22502843 -0.0048130425 0.0018551403 -0.18163262 0.031250402 0.07148468
0.12903544 0.25734502 0.13879888 0.028321948 -0.03861656 -0.05236865 -0.0056202793 0.04632655
0.041367363 0.025797054 0.058910083 -0.3738057 -0.18545134 -0.015193746 0.06740056 0.12877426
0.14353983 0.027500544 0.053239856 -0.11277932 0.037008297 -0.13205127 -0.011268627 0.037265193
-0.18902904 -0.010462902 -0.20874934 -0.07977135 0.21137841 -0.122276165 -0.27597022 -0.0011978612
0.007185877 -0.0043297256 0.06387578 -0.10177006 -0.0012678808 -0.021917714 -0.031157492 -0.112687014
0.08063768 0.12022206 -0.09257877 -0.029154535 0.07710995 -0.0034168735 -0.15951079 0.062037442
-0.1830159 -0.2202538 0.07251212 -0.010922588 -0.28783348 0.13678534 0.122940026 0.03129298
-0.12574822 0.071140304 -0.1468522 0.17105037 -0.020590233 0.021018723 0.23998293 -0.08387084
-0.026207125 -0.004863039 -0.027338585 0.07166295 -0.08800457 -0.002568615 0.10240131 -0.1337714
0.04527645 0.13503781 0.029175075 -0.10920041 -0.026873263 -0.06686618 -0.18409713 -0.11287463
-0.06892642 0.0034993072 0.03148124 0.021888224 0.09798921 -0.0048975963 -0.05547913 0.058417916
0.07215021 0.1179867 -0.064456925 -0.10205383 0.0848852 0.0453785 0.046283156 0.09468939
0.027509252 0.08207068 -0.085621156 0.07557678 0.053497452 -0.026026398 0.02338953 0.071436666
-0.07705738 0.10158307 -0.02732703 0.017714832 7.6184864e-05 0.09477255 0.08514776 -0.05489581
-0.07972675 -0.008402006 0.08232536 -0.041994434 -0.019432975 0.0013306924 -0.030965386 0.04184565
00000000: 8b2b eabd fbe6 0cbe a784 f3bd 3d02 e3bc
00000010: 6932 763d f169 1c3c bc4b 17be ec64 773d
00000020: 684a 2d3c cb94 debd 440c 06bd 62dc a1bd
00000030: 7178 55bd 132e 0ebd 8d3a b1bc 9932 02bb
00000040: f7cc b23b f3fc b8bc 9fea d23b 59eb 7d3d
00000050: e6e2 913e ece0 01be b509 b43c 8411 b2bc
00000060: 0e36 b2bd 1ea7 42bd 54a8 afbd ba3b ce3d
00000070: 63a6 07be c87a d03d be7e a4bc 8173 263c
00000080: 4dc9 69bd 357d 2bbd 0521 063d caa9 0e3c
00000090: 9933 803d 4f0a 953d c2db 033e ac77 ea3a
000000a0: 9aaa 72bd 7e2e 9e3d 92e3 673e 12bc 00bb
000000b0: 4d1d 7dbd a7d4 03be 612a f73d 4cd8 d23e
000000c0: 4a7e 0e3d 0c30 e7bd a948 793c 4b73 183d
000000d0: 7401 003e 0529 fe3c 8543 ad3c f1c1 23be
000000e0: 1bbb 41bd 96ab ff3a ef75 183b a912 a63d
000000f0: 45da c7bc 4efd 993d ec0d a33d 7f82 82bd
00000100: f9c2 8b3d f24e 1abd e157 76bd 9a79 c13b
00000110: 9f06 36bd 83eb ce3d 26b5 4b3c 4184 1fbd
00000120: 1eac 01be ca95 cabd b9a0 b1bd 2fca fe3c
00000130: c3c0 d33d f485 05bd 61ad c73c 25e1 06be
00000140: 0dde 8a3c 16b5 fd3d 0f71 623d 101a 5ebd
00000150: 67bc b03c 3965 b2bc 6f74 ab3c bdf0 d3bc
00000160: 799f 82bd aee9 65bd 272d 023e 8820 7abd
00000170: d26b 4d3d e13b de3d 6222 4dbe e587 843d
00000180: 77bf debd 6a90 0b3c 31ec cc3d ce21 673d
00000190: 4d2a a33d 343c 4abc 85c9 cf3d 00cb 33bd
000001a0: 4c86 923d 64b8 d93d cb08 3d3d 1cdc 8cbe
000001b0: 19c9 10be acf5 82bd a5f5 333d 2ee0 34be
000001c0: 5cf8 e2bd 45eb cdbd c3e6 ea3c d875 1e3e
000001d0: cc91 553e 4f77 c9bd 092a 123e 69e2 4ebd
000001e0: 6040 86be 1659 fabd 07c5 873c be06 09bd
000001f0: 321b 543e f85b b5bd 62c5 debd 83dc 353d
00000200: b439 7cbe 647e fa3d da6d 66be bab6 9dbb
00000210: 2e28 f33a e7fd 39be 6c00 003d 8f66 923d
00000220: de21 043e bac2 833e 4b21 0e3e 6e03 e83c
00000230: 662c 1ebd 8280 56bd 522a b8bb e9c0 3d3d
00000240: d370 293d 5854 d33c b34b 713d 7663 bfbe
00000250: f5e6 3dbe 31ef 78bc 4e09 8a3d 66dd 033e
00000260: 1bfc 123e d248 e13c 0912 5a3d d8f8 e6bd
00000270: 0396 173d 7338 07be 0ca0 38bc 63a3 183d
00000280: d490 41be 976c 2bbc 63c2 55be 295f a3bd
00000290: 9573 583e ed6b fabd f84b 8dbe 8d01 9dba
000002a0: 8177 eb3b 5fe0 8dbb 4ed1 823d d26c d0bd
000002b0: 052f a6ba c78c b3bc ff3d ffbc 73c8 e6bd
000002c0: 5e25 a53d fc36 f63d f099 bdbd 7ed5 eebc
000002d0: d2eb 9d3d a0ed 5fbb cc56 23be f91a 7e3d
000002e0: 8568 3bbe 368a 61be 3c81 943d a8f4 32bc
000002f0: e95e 93be 7511 0c3e fbc7 fb3d 112d 003d
00000300: 24c4 00be 02b2 913d 6c60 16be d427 2f3e
00000310: d9ac a8bc 752f ac3c 16be 753e 7ac4 abbd
00000320: 53b0 d6bc 215a 9fbb 2bf5 dfbc 06c4 923d
00000330: bd3b b4bd 3556 28bb c7b7 d13d 5ffb 08be
00000340: cd73 393d 5a47 0a3e 9100 ef3c 77a4 dfbd
00000350: 5125 dcbc 23f1 88bd f583 3cbe d02a e7bd
00000360: 4b29 8dbd a254 653b 79f2 003d ef4e b33c
00000370: 91ae c83d 047c a0bb 163e 63bd a047 6f3d
00000380: 7dc3 933d 03a3 f13d fe01 84bd 9901 d1bd
00000390: 4bd8 ad3d cede 393d 6893 3d3d 83ec c13d
000003a0: 155b e13c ac14 a83d 255a afbd 00c8 9a3d
000003b0: 2520 5b3d 5035 d5bc 669b bf3c 634d 923d
000003c0: 42d0 9dbd c90a d03d f0dc dfbc b21e 913c
000003d0: 70c5 9f38 1c18 c23d f361 ae3d 6eda 60bd
000003e0: c747 a3bd 91a8 09bc 339a a83d 5b02 2cbd
000003f0: e731 9fbc a16a ae3a 1fab fdbc 5866 2b3d

lstm.bias_hh_l0 f4 [400]
-0.06549046 -0.003084657 -0.16347389 -0.036062937 0.10962486 0.16749807 -0.13702294 0.20366094
0.02375352 -0.02481181 -0.03937746 -0.08433592 0.023863763 0.065620184 0.006348468 0.098787546
-0.0005478683 0.069023915 0.033463147 -0.08332647 0.21476902 -0.21265228 0.085607015 -0.0011329637
-0.08803147 -0.15396589 -0.026558295 -0.0499454 -0.1487868 0.09934892 0.06921305 0.019392176
-0.034178983 -0.108013734 -0.09900278 0.017219866 0.047732033 0.1592943 0.07846825 -0.06541142
0.113288514 -0.037827063 0.081750646 -0.02159289 -0.16345808 -0.023107382 0.058083914 0.30712175
-0.039015256 0.0033353907 -0.06614696 -0.00832529 0.17552803 0.13995531 -0.050330155 -0.154904
-0.07185078 -0.050220832 -0.0029099083 -0.053985674 0.057137057 0.044888828 0.018016884 -0.061995737
0.16787106 -0.07903062 -0.15212178 0.088013425 0.027855815 0.068803065 0.1372886 -0.10175003
-0.08589583 0.023802916 -0.1833596 -0.009336039 0.00040454263 -0.024440313 -0.126037 0.0113639785
-0.007581884 0.109767765 -0.03854743 0.041769296 -0.09053986 -0.023870451 0.018210186 0.012960245
0.037467122 -0.09638295 0.03428329 -0.0556326 0.045044772 0.014956864 -0.015895825 0.16537641
-0.11480599 -0.0833749 0.20992978 0.10665365 0.030797327 0.026413517 0.01935161 -0.09403849
0.07529761 0.13318345 0.049050894 -0.3766576 -0.15263407 0.017157452 -0.07166832 -0.15818173
-0.111679375 -0.037718836 0.14375165 0.07095256 0.15753624 -0.10304809 0.13539128 -0.07795114
-0.3012181 -0.07678415 -0.013899299 0.047811545 0.14878967 -0.0032134785 -0.14817698 -0.04233523
-0.3126078 0.112915605 -0.07714929 -0.037980407 -0.079268865 -0.06192462 0.004932732 0.061647624
0.023538748 0.23611198 0.08925763 -0.08008871 0.024291018 0.043497153 -0.026546087 -0.1124749
0.062427774 0.0014646169 0.17232154 -0.5071377 -0.26539138 -0.079262406 0.06825432 0.019697092
0.046571027 0.06004525 0.023462398 -0.019972237 -0.049917895 -0.28400367 -0.023201665 0.008336202
-0.1376635 -0.04759933 -0.3371978 0.062046673 0.16675915 -0.108623035 -0.16692562 0.07544219
-0.035891615 0.0735601 0.076018736 -0.004317378 0.0018714786 -0.009567477 -0.16112313 -0.079765014
-0.040685523 0.08073686 -0.124475226 0.009576086 -0.051241912 -0.011255193 -0.13893723 -0.09414219
-0.06517575 -0.14921275 0.023107085 -0.030142255 -0.17762856 0.05137058 0.06964008 0.028615424
-0.10750934 0.02708781 -0.16757122 0.1244681 -0.13991472 -0.030804733 0.12629317 0.034293342
-0.085578136 -0.12832767 0.030708196 -0.00031374794 -0.040358894 0.06426241 -0.013154325 0.012930385
0.09817867 0.066235416 0.015302335 -0.11980338 -0.10811077 -0.08008031 -0.042644855 -0.099723086
0.090024985 0.101280935 0.06777453 -0.04730501 0.034561366 3.350257e-05 -0.09599913 0.07441023
0.1232037 -0.0018387544 0.12309131 -0.12546888 0.09256292 0.017661761 -0.00040474252 0.03179826
0.10084733 0.11218193 -0.026763605 0.07903957 0.08172282 0.15384072 -0.0076932088 0.11325904
0.036023986 -0.025667146 -0.058167953 0.054224696 0.12879325 0.03813996 0.044541165 -0.122803725
-0.013859618 -0.09334997 0.06865419 -0.066655606 0.017960617 0.0503208 -0.008994457 0.014774977
00000000: dd1f 86bd f527 4abb b365 27be bbb6 13bd
00000010: 0083 e03d 9d84 2b3e be4f 0cbe 7e8c 503e
00000020: be96 c23c 2342 cbbc 424a 21bd 50b8 acbd
00000030: f07d c33c e063 863d cf06 d03b 2051 ca3d
00000040: d29e 0fba 695c 8d3d a710 093d 11a7 aabd
00000050: 69ec 5b3e 85c1 59be bb52 af3d f47f 94ba
00000060: d849 b4bd 3ca9 1dbe c890 d9bc 8c93 4cbd
00000070: 915b 18be 7277 cb3d 92bf 8d3d 57dc 9e3c
00000080: 43ff 0bbd 4e36 ddbd f8c1 cabd ad10 8d3c
00000090: aa82 433d 0c1e 233e f6b3 a03d 6cf6 85bd
000000a0: cf03 e83d 8df0 1abd e26c a73d 93e3 b0bc
000000b0: 8e61 27be b14b bdbc 66e9 6d3d 103f 9d3e
000000c0: 76ce 1fbd 9296 5a3b 0f78 87bd cc66 08bc
000000d0: 9fbd 333e 7250 0f3e fe26 4ebd 279f 1ebe
000000e0: 8026 93bd 5cb4 4dbd 29b4 3ebb 1520 5dbd
000000f0: 8c08 6a3d 59dd 373d 2598 933c 3eef 7dbd
00000100: 64e6 2b3e ceda a1bd d0c5 1bbe 6240 b43d
00000110: e131 e43c 9fe8 8c3d 6295 0c3e 5262 d0bd
00000120: 27ea afbd 55fe c23c 9ec2 3bbe 30f6 18bc
00000130: cb18 d439 0d37 c8bc d80f 01be fb2f 3a3c
00000140: 7471 f8bb eccd e03d e9e3 1dbd 4816 2b3d
00000150: f66c b9bd f78b c3bc 872d 953c 3557 543c
00000160: 2077 193d 6d64 c5bd a36c 0c3d 02df 63bd
00000170: de80 383d a20d 753c f637 82bc 6f58 293e
00000180: 671f ebbd 76c0 aabd d5f7 563e 3b6d da3d
00000190: ad4a fc3c 2961 d83c 4587 9e3c 4097 c0bd
000001a0: a235 9a3d 3e61 083e 97e9 483d 44d9 c0be
000001b0: 1b4c 1cbe c98d 8c3c d7c6 92bd 64fa 21be
000001c0: 28b8 e4bd 117f 1abd a233 133e 934f 913d
000001d0: 2e51 213e e10a d3bd 03a4 0a3e d9a4 9fbd
000001e0: 4239 9abe 0241 9dbd e3b9 63bc 0ad6 433d
000001f0: 525c 183e 3999 52bb b5bb 17be b567 2dbd
00000200: 210e a0be 4c40 e73d 7200 9ebd 5891 1bbd
00000210: b757 a2bd aca4 7dbd c1a2 a13b 3882 7c3d
00000220: 55d4 c03c 57c7 713e b4cc b63d 8d05 a4bd
00000230: f5fd c63c 122a 323d 2e77 d9bc 3e59 e6bd
00000240: 44b4 7f3d 63f8 bf3a 0f75 303e c7d3 01bf
00000250: 61e1 87be 5454 a2bd ecc8 8b3d cc5b a13c
00000260: 43c1 3e3d 02f2 753d 3734 c03c d19c a3bc
00000270: b576 4cbd ee68 91be 6b11 bebc 9194 083c
00000280: a9f7 0cbe 84f7 42bd 31a5 acbe a724 7e3d
00000290: e9c2 2a3e c175 debd 8dee 2abe 6f81 9a3d
000002a0: 1603 13bd ada6 963d b6af 9b3d cb78 8dbb
000002b0: 674c f53a e8c0 1cbc 76fd 24be d75b a3bd
000002c0: dda5 26bd 5e59 a53d deec febd 04e5 1c3c
000002d0: 0ae3 51bd b367 38bc 9045 0ebe 9fcd c0bd
000002e0: dd7a 85bd 3acb 18be 124b bd3c e4ec f6bc
000002f0: 43e4 35be f569 523d 759f 8e3d e56a ea3c
00000300: db2d dcbd 41e7 dd3c ca97 2bbe 22e9 fe3d
00000310: ce45 0fbe 355a fcbc ff52 013e 2d77 0c3d
00000320: 9743 afbd 5468 03be c18f fb3c 897e a4b9
00000330: 5e4f 25bd 039c 833d 3d85 57bc f7d9 533c
00000340: e611 c93d 6fa6 873d a5b6 7a3c 795b f5bd
00000350: 2e69 ddbd 2501 a4bd 5fac 2ebd 9e3b ccbd
00000360: 055f b83d 616c cf3d 5fcd 8a3d e6c2 41bd
00000370: 3890 0d3d 1c85 0c38 319b c4bd 6464 983d
00000380: 3952 fc3d 5c02 f1ba 4c17 fc3d ea7a 00be
00000390: a191 bd3d 66af 903c 9f33 d4b9 e43e 023d
000003a0: 0c89 ce3d a4bf e53d 593f dbbc 80df a13d
000003b0: 4b5e a73d 6c88 1d3e 5017 fcbb 5bf4 e73d
000003c0: e38d 133d e843 d2bc 8541 6ebd b71a 5e3d
000003d0: 61e2 033e a638 1c3d cc70 363d 8580 fbbd
000003e0: 7413 63bc 452e bfbd 919a 8c3d bc82 88bd
000003f0: 2522 933c 2f1d 4e3d 7d5d 13bc bf12 723c

f1.weight f4 [20, 100]
0.052256357 0.06797967 0.06292829 0.18102819 -0.0792141 -0.14912772 0.09795368 -0.05311181
-0.0028330714 0.04939778 0.18240052 -0.100593485 0.010078801 -0.11139762 -0.041034233 -0.02204601
0.09474105 0.28391892 -0.028240439 -0.035908513 0.073719054 0.19621898 -0.06311191 0.14147617
-0.0058722375 0.19779223 0.25925183 0.0480086 0.14478105 -0.16142283 0.014315961 0.24183078
0.09327781 0.11670983 -0.07687747 -0.09088826 0.07168713 0.07179155 -0.05609931 0.17038748
0.038357317 -0.06807876 0.036728263 -0.0379202 0.11851077 0.06927005 -0.07566751 -0.017178688
-0.19827422 -0.0103204 -0.033366393 0.08249054 0.070336424 0.0054730196 0.06702446 0.2376435
-0.059005395 -0.19556865 -0.034547873 0.0033510413 0.1400587 -0.028441595 -0.20066978 -0.12475616
0.07081674 -0.09795381 0.23435393 -0.065280095 0.1066215 0.005979546 -0.11299971 0.019147418
0.2769963 -0.019567424 -0.32147723 -0.03947825 0.02583638 0.041509937 0.16919528 0.11337406
-0.058621682 0.036128085 -0.36157525 0.001656549 -0.16646707 -0.40856728 -0.025543783 0.1101914
-0.18191208 -0.03622932 0.057070203 -0.13801879 -0.15647388 0.014414992 -0.123585165 -0.16247259
0.111787856 -0.1023353 -0.07652962 -0.11338461 0.01617792 0.14340729 0.047367427 0.13821252
-0.065778084 -0.18922201 0.02302651 -0.11720797 0.0649294 -0.044489924 0.21841425 -0.05347983
0.0057552434 -0.11235052 -0.09757042 0.0124743255 -0.06593367 0.25279585 -0.057136275 -0.08734296
0.07525614 0.1451562 -0.08020167 -0.029737132 -0.077938996 0.2002206 0.17956577 0.0004870795
0.19578028 -0.1654009 0.045856643 0.19120787 0.0919688 0.020482365 -0.018601784 -0.17774348
0.034223273 -0.0750809 -0.20078613 0.09138733 -0.054639902 0.0025724212 0.09733312 -0.031085208
0.062866084 0.0811628 -0.059135955 -0.07827052 -0.28434667 -0.032967646 0.0289988 0.042791024
0.040112905 -0.0021607608 0.027706781 0.24561024 -0.014557741 -0.10305577 -0.03600818 -0.014519652
0.18837121 -0.047630914 -0.172656 -0.10236593 0.07943731 0.05477862 0.28897077 -0.14953941
0.14171344 -0.03791591 0.0036947222 0.09329996 0.25217387 -0.023223218 -0.2948828 0.026311053
0.10567688 0.023743577 0.15559247 0.101939775 -0.07063031 0.07780396 -0.3263634 -0.018216334
-0.20523673 -0.45900476 0.068877414 0.09585673 -0.2070493 -0.16321425 -0.030023217 -0.107993744
-0.19297154 -0.02608257 -0.058822 -0.06766099 -0.05911203 -0.049535424 -0.064701535 -0.109237
0.04357487 0.17919514 0.018396484 0.020281319 -0.004853339 -0.05992868 -0.0045515983 -0.24711567
0.019239109 -0.009757975 0.14245333 -0.1106345 0.030320382 -0.23959264 -0.16435534 0.16799581
-0.12509637 0.17924352 -0.1588043 -0.0017211818 0.19069566 0.06477559 -0.19746046 -0.2388864
-0.036985748 0.14211755 0.11738674 -0.15663815 0.24554 -0.087833 0.10898548 0.10500741
0.0345179 -0.028048683 -0.008317562 -0.15078329 0.0021940484 -0.13888444 -0.16538854 0.24271831
-0.018112853 0.026270147 0.24590215 -0.045073066 -0.055903047 -0.058337014 -0.040109426 -0.13465856
-0.33063215 0.054315563 0.08512139 0.21411353 -0.044208255 -0.032962497 0.174534 0.10998586
00000000: c30a 563d ed38 8b3d 8ce0 803d 745f 393e
00000010: 013b a2bd f0b4 18be f09b c83d c58b 59bd
00000020: 0dab 39bb 5455 4a3d 34c7 3a3e f503 cebd
00000030: 8e21 253c 6f24 e4bd 8313 28bd d599 b4bc
00000040: 9807 c23d d25d 913e 7e58 e7bc ce14 13bd
00000050: 04fa 963d a1ed 483e d140 81bd 21df 103e
00000060: e66b c0bb 0c8a 4a3e a8bc 843e aaa4 443d
00000070: 7c41 143e 074c 25be 7e8d 6a3c 7da2 773e
00000080: 7008 bf3d 9005 ef3d ef71 9dbd a023 babd
00000090: b4d0 923d 7307 933d 64c8 65bd 0e7a 2e3e
000000a0: 901c 1d3d e06c 8bbd 6070 163d 3652 1bbd
000000b0: c6b5 f23d 75dd 8d3d 91f7 9abd 52ba 8cbc
000000c0: 6608 4bbe e516 29bc 33ab 08bd cdf0 a83d
000000d0: 8b0c 903d 0457 b33b 1f44 893d d158 733e
000000e0: a4af 71bd 2643 48be 1282 0dbd 259d 5b3b
000000f0: 8c6b 0f3e 59fe e8bc 617c 4dbe 2880 ffbd
00000100: 5e08 913d 029c c8bd 7afa 6f3e 92b1 85bd
00000110: 5f5c da3d 11f0 c33b 646c e7bd 0cdb 9c3c
00000120: 76d2 8d3e dd4b a0bc aa98 a4be f2b3 21bd
00000130: d1a6 d33c 5306 2a3d 8741 2d3e a930 e83d
00000140: 4a1d 70bd 0bfb 133d 6420 b9be 9020 d93a
00000150: 5876 2abe bb2f d1be 3241 d1bc 07ac e13d
00000160: 2947 3abe 3265 14bd 72c2 693d cc54 0dbe
00000170: b03a 20be dc2c 6c3c 381a fdbd 375f 26be
00000180: 08f1 e43d 2b95 d1bd 90bb 9cbd 3136 e8bd
00000190: 8f87 843c 5cd9 123e 5904 423d 9587 0d3e
000001a0: a9b6 86bd 6ac3 41be 17a2 bc3c bb0a f0bd
000001b0: b5f9 843d 113b 36bd fca7 5f3e ab0d 5bbd
000001c0: 7b96 bc3b 0818 e6bd 00d3 c7bd 1d61 4c3c
000001d0: 3b08 87bd 756e 813e ba07 6abd dee0 b2bd
000001e0: e41f 9a3d d4a3 143e c640 a4bd 499b f3bc
000001f0: 7b9e 9fbd a106 4d3e 17e0 373e b45e ff39
00000200: a07a 483e db5e 29be 2dd4 3b3d ffcb 433e
00000210: 235a bc3d a2ca a73c c562 98bc 6302 36be
00000220: b42d 0c3d 04c4 99bd e19a 4dbe 4829 bb3d
00000230: 17ce 5fbd 1196 283b 9656 c73d 68a6 febc
00000240: efbf 803d af38 a63d 8b38 72bd 4b4c a0bd
00000250: e395 91be 1509 07bd e48e ed3c a445 2f3d
00000260: 6e4d 243d 8d9b 0dbb 55f9 e23c 4081 7b3e
00000270: 9783 6ebc e70e d3bd 507d 13bd d6e3 6dbc
00000280: 62e4 403e a218 43bd bccc 30be 3ba5 d1bd
00000290: 07b0 a23d 8c5f 603d faf3 933e dc20 19be
000002a0: 541d 113e b74d 1bbd 2723 723b 0d14 bf3d
000002b0: ef1c 813e 9e3e bebc e1fa 96be 478a d73c
000002c0: 1f6d d83d e481 c23c a253 1f3e cdc5 d03d
000002d0: a0a6 90bd af57 9f3d 1b19 a7be 6c3a 95bc
000002e0: 9429 52be ac02 ebbe 9a0f 8d3d 8950 c43d
000002f0: bb04 54be a321 27be 40f3 f5bc d32b ddbd
00000300: 559a 45be 1dab d5bc 56ef 70bd d891 8abd
00000310: 751f 72bd a8e5 4abd 3d82 84bd a6b7 dfbd
00000320: 907b 323d ee7e 373e 39b4 963c 0225 a63c
00000330: c208 9fbb c777 75bd 9325 95bb e40b 7dbe
00000340: 569b 9d3c eadf 1fbc 49df 113e 5794 e2bd
00000350: 7362 f83c c657 75be c44c 28be 1807 2c3e
00000360: 4319 00be 9d8b 373e 989d 22be 4799 e1ba
00000370: b945 433e 11a9 843d 1333 4abe a39e 74be
00000380: 5e7e 17bd 4387 113e 7668 f03d c065 20be
00000390: d66e 7b3e cae1 b3bd c833 df3d 200e d73d
000003a0: a462 0d3d 5ac6 e5bc 6246 08bc ef66 1abe
000003b0: 06ca 0f3b b937 0ebe 9d5b 29be 268b 783e
000003c0: 6861 94bc 7e34 d73c c6cd 7b3e 899e 38bd
000003d0: 98fa 64bd cbf2 6ebd c849 24bd efe3 09be
000003e0: 9e48 a9be ff79 5e3d 2054 ae3d 9440 5b3e
000003f0: b713 35bd af03 07bd 0ab9 323e 4440 e13d

f1.bias f4 [20]
0.4164248 0.3839017 0.3859316 0.18626258 0.19052342 0.33165133 0.32652366 0.19672328
0.2845862 0.47248465 0.33590543 0.51630855 0.6583988 0.56065166 0.18629022 0.38371947
0.7539074 0.24990372 0.67800695 0.30651936
00000000: a235 d53e c38e c43e d498 c53e 9ebb 3e3e
00000010: 9218 433e 34ce a93e 1c2e a73e d471 493e
00000020: 48b5 913e 82e9 f13e ccfb ab3e cc2c 043f
00000030: d38c 283f de86 0f3f ddc2 3e3e e176 c43e
00000040: 1300 413f c3e6 7f3e dd91 2d3f 1bf0 9c3e

f2.weight f4 [1, 20]
-0.1599973 -0.27434263 -0.26713902 0.2833868 0.23686418 -0.12721458 -0.09090007 0.22207388
-0.244404 -0.22907458 -0.2035272 -0.36585614 -0.29888737 -0.28897634 0.29742497 -0.17695923
-0.42973396 0.30740523 -0.46864608 0.251381
00000000: 55d6 23be a376 8cbe 72c6 88be 1318 913e
00000010: 868c 723e 8a44 02be d129 babd 5667 633e
00000020: 0b45 7abe 8792 6abe 6f69 50be 7f51 bbbe
00000030: c407 99be b5f4 93be 1648 983e cd34 35be
00000040: 1706 dcbe 3864 9d3e 61f2 efbe 03b5 803e
